…
  warnings.warn("torch.nn.utils.weight_norm is deprecated in favor of torch.nn.utils.parametrizations.weight_norm.")
2025-10-29 19:44:43,337 [root] INFO: Extractor:
LogMelFbank(
  (stft): Stft(n_fft=1024, win_length=1024, hop_length=256, center=True, normalized=False, onesided=True)
  (logmel): LogMel(sr=22050, n_fft=1024, n_mels=80, fmin=80, fmax=7600, htk=False)
)
2025-10-29 19:44:43,337 [root] INFO: Normalizer:
GlobalMVN(stats_file=feats_stats.npz, norm_means=True, norm_vars=True)
2025-10-29 19:44:43,339 [root] INFO: TTS:
JointText2Wav(
  (generator): ModuleDict(
    (text2mel): Tacotron2(
      (enc): Encoder(
        (embed): Embedding(48, 512, padding_idx=0)
        (convs): ModuleList(
          (0-2): 3 x Sequential(
            (0): Conv1d(512, 512, kernel_size=(5,), stride=(1,), padding=(2,), bias=False)
            (1): BatchNorm1d(512, eps=1e-05, momentum=0.1, affine=True, track_running_stats=True)
            (2): ReLU()
            (3): Dropout(p=0.5, inplace=False)
          )
        )
        (blstm): LSTM(512, 256, batch_first=True, bidirectional=True)
      )
      (projection): Linear(in_features=192, out_features=512, bias=True)
      (dec): Decoder(
        (att): AttLoc(
          (mlp_enc): Linear(in_features=512, out_features=512, bias=True)
          (mlp_dec): Linear(in_features=1024, out_features=512, bias=False)
          (mlp_att): Linear(in_features=32, out_features=512, bias=False)
          (loc_conv): Conv2d(1, 32, kernel_size=(1, 31), stride=(1, 1), padding=(0, 15), bias=False)
          (gvec): Linear(in_features=512, out_features=1, bias=True)
        )
        (lstm): ModuleList(
          (0): ZoneOutCell(
            (cell): LSTMCell(768, 1024)
          )
          (1): ZoneOutCell(
            (cell): LSTMCell(1024, 1024)
          )
        )
        (prenet): Prenet(
          (prenet): ModuleList(
            (0): Sequential(
              (0): Linear(in_features=80, out_features=256, bias=True)
              (1): ReLU()
            )
            (1): Sequential(
              (0): Linear(in_features=256, out_features=256, bias=True)
              (1): ReLU()
            )
          )
        )
        (postnet): Postnet(
          (postnet): ModuleList(
            (0): Sequential(
              (0): Conv1d(80, 512, kernel_size=(5,), stride=(1,), padding=(2,), bias=False)
              (1): BatchNorm1d(512, eps=1e-05, momentum=0.1, affine=True, track_running_stats=True)
              (2): Tanh()
              (3): Dropout(p=0.5, inplace=False)
            )
            (1-3): 3 x Sequential(
              (0): Conv1d(512, 512, kernel_size=(5,), stride=(1,), padding=(2,), bias=False)
              (1): BatchNorm1d(512, eps=1e-05, momentum=0.1, affine=True, track_running_stats=True)
              (2): Tanh()
              (3): Dropout(p=0.5, inplace=False)
            )
            (4): Sequential(
              (0): Conv1d(512, 80, kernel_size=(5,), stride=(1,), padding=(2,), bias=False)
              (1): BatchNorm1d(80, eps=1e-05, momentum=0.1, affine=True, track_running_stats=True)
              (2): Dropout(p=0.5, inplace=False)
            )
          )
        )
        (feat_out): Linear(in_features=1536, out_features=80, bias=False)
        (prob_out): Linear(in_features=1536, out_features=1, bias=True)
      )
      (taco2_loss): Tacotron2Loss(
        (l1_criterion): L1Loss()
        (mse_criterion): MSELoss()
        (bce_criterion): BCEWithLogitsLoss()
      )
      (attn_loss): GuidedAttentionLoss()
    )
    (vocoder): HiFiGANGenerator(
      (input_conv): Conv1d(80, 512, kernel_size=(7,), stride=(1,), padding=(3,))
      (upsamples): ModuleList(
        (0): Sequential(
          (0): LeakyReLU(negative_slope=0.1)
          (1): ConvTranspose1d(512, 256, kernel_size=(16,), stride=(8,), padding=(4,))
        )
        (1): Sequential(
          (0): LeakyReLU(negative_slope=0.1)
          (1): ConvTranspose1d(256, 128, kernel_size=(16,), stride=(8,), padding=(4,))
        )
        (2): Sequential(
          (0): LeakyReLU(negative_slope=0.1)
          (1): ConvTranspose1d(128, 64, kernel_size=(4,), stride=(2,), padding=(1,))
        )
        (3): Sequential(
          (0): LeakyReLU(negative_slope=0.1)
          (1): ConvTranspose1d(64, 32, kernel_size=(4,), stride=(2,), padding=(1,))
        )
      )
      (blocks): ModuleList(
        (0): ResidualBlock(
          (convs1): ModuleList(
            (0): Sequential(
              (0): LeakyReLU(negative_slope=0.1)
              (1): Conv1d(256, 256, kernel_size=(3,), stride=(1,), padding=(1,))
            )
            (1): Sequential(
              (0): LeakyReLU(negative_slope=0.1)
              (1): Conv1d(256, 256, kernel_size=(3,), stride=(1,), padding=(3,), dilation=(3,))
            )
            (2): Sequential(
              (0): LeakyReLU(negative_slope=0.1)
              (1): Conv1d(256, 256, kernel_size=(3,), stride=(1,), padding=(5,), dilation=(5,))
            )
          )
          (convs2): ModuleList(
            (0-2): 3 x Sequential(
              (0): LeakyReLU(negative_slope=0.1)
              (1): Conv1d(256, 256, kernel_size=(3,), stride=(1,), padding=(1,))
            )
          )
        )
        (1): ResidualBlock(
          (convs1): ModuleList(
            (0): Sequential(
              (0): LeakyReLU(negative_slope=0.1)
              (1): Conv1d(256, 256, kernel_size=(7,), stride=(1,), padding=(3,))
            )
            (1): Sequential(
              (0): LeakyReLU(negative_slope=0.1)
              (1): Conv1d(256, 256, kernel_size=(7,), stride=(1,), padding=(9,), dilation=(3,))
            )
            (2): Sequential(
              (0): LeakyReLU(negative_slope=0.1)
              (1): Conv1d(256, 256, kernel_size=(7,), stride=(1,), padding=(15,), dilation=(5,))
            )
          )
          (convs2): ModuleList(
            (0-2): 3 x Sequential(
              (0): LeakyReLU(negative_slope=0.1)
              (1): Conv1d(256, 256, kernel_size=(7,), stride=(1,), padding=(3,))
            )
          )
        )
        (2): ResidualBlock(
          (convs1): ModuleList(
            (0): Sequential(
              (0): LeakyReLU(negative_slope=0.1)
              (1): Conv1d(256, 256, kernel_size=(11,), stride=(1,), padding=(5,))
            )
            (1): Sequential(
              (0): LeakyReLU(negative_slope=0.1)
              (1): Conv1d(256, 256, kernel_size=(11,), stride=(1,), padding=(15,), dilation=(3,))
            )
            (2): Sequential(
              (0): LeakyReLU(negative_slope=0.1)
              (1): Conv1d(256, 256, kernel_size=(11,), stride=(1,), padding=(25,), dilation=(5,))
            )
          )
          (convs2): ModuleList(
            (0-2): 3 x Sequential(
              (0): LeakyReLU(negative_slope=0.1)
              (1): Conv1d(256, 256, kernel_size=(11,), stride=(1,), padding=(5,))
            )
          )
        )
        (3): ResidualBlock(
          (convs1): ModuleList(
            (0): Sequential(
              (0): LeakyReLU(negative_slope=0.1)
              (1): Conv1d(128, 128, kernel_size=(3,), stride=(1,), padding=(1,))
            )
            (1): Sequential(
              (0): LeakyReLU(negative_slope=0.1)
              (1): Conv1d(128, 128, kernel_size=(3,), stride=(1,), padding=(3,), dilation=(3,))
            )
            (2): Sequential(
              (0): LeakyReLU(negative_slope=0.1)
              (1): Conv1d(128, 128, kernel_size=(3,), stride=(1,), padding=(5,), dilation=(5,))
            )
          )
          (convs2): ModuleList(
            (0-2): 3 x Sequential(
              (0): LeakyReLU(negative_slope=0.1)
              (1): Conv1d(128, 128, kernel_size=(3,), stride=(1,), padding=(1,))
            )
          )
        )
        (4): ResidualBlock(
          (convs1): ModuleList(
            (0): Sequential(
              (0): LeakyReLU(negative_slope=0.1)
              (1): Conv1d(128, 128, kernel_size=(7,), stride=(1,), padding=(3,))
            )
            (1): Sequential(
              (0): LeakyReLU(negative_slope=0.1)
              (1): Conv1d(128, 128, kernel_size=(7,), stride=(1,), padding=(9,), dilation=(3,))
            )
            (2): Sequential(
              (0): LeakyReLU(negative_slope=0.1)
              (1): Conv1d(128, 128, kernel_size=(7,), stride=(1,), padding=(15,), dilation=(5,))
            )
          )
          (convs2): ModuleList(
            (0-2): 3 x Sequential(
              (0): LeakyReLU(negative_slope=0.1)
              (1): Conv1d(128, 128, kernel_size=(7,), stride=(1,), padding=(3,))
            )
          )
        )
        (5): ResidualBlock(
          (convs1): ModuleList(
            (0): Sequential(
              (0): LeakyReLU(negative_slope=0.1)
              (1): Conv1d(128, 128, kernel_size=(11,), stride=(1,), padding=(5,))
            )
            (1): Sequential(
              (0): LeakyReLU(negative_slope=0.1)
              (1): Conv1d(128, 128, kernel_size=(11,), stride=(1,), padding=(15,), dilation=(3,))
            )
            (2): Sequential(
              (0): LeakyReLU(negative_slope=0.1)
              (1): Conv1d(128, 128, kernel_size=(11,), stride=(1,), padding=(25,), dilation=(5,))
            )
          )
          (convs2): ModuleList(
            (0-2): 3 x Sequential(
              (0): LeakyReLU(negative_slope=0.1)
              (1): Conv1d(128, 128, kernel_size=(11,), stride=(1,), padding=(5,))
            )
          )
        )
        (6): ResidualBlock(
          (convs1): ModuleList(
            (0): Sequential(
              (0): LeakyReLU(negative_slope=0.1)
              (1): Conv1d(64, 64, kernel_size=(3,), stride=(1,), padding=(1,))
            )
            (1): Sequential(
              (0): LeakyReLU(negative_slope=0.1)
              (1): Conv1d(64, 64, kernel_size=(3,), stride=(1,), padding=(3,), dilation=(3,))
            )
            (2): Sequential(
              (0): LeakyReLU(negative_slope=0.1)
              (1): Conv1d(64, 64, kernel_size=(3,), stride=(1,), padding=(5,), dilation=(5,))
            )
          )
          (convs2): ModuleList(
            (0-2): 3 x Sequential(
              (0): LeakyReLU(negative_slope=0.1)
              (1): Conv1d(64, 64, kernel_size=(3,), stride=(1,), padding=(1,))
            )
          )
        )
        (7): ResidualBlock(
          (convs1): ModuleList(
            (0): Sequential(
              (0): LeakyReLU(negative_slope=0.1)
              (1): Conv1d(64, 64, kernel_size=(7,), stride=(1,), padding=(3,))
            )
            (1): Sequential(
              (0): LeakyReLU(negative_slope=0.1)
              (1): Conv1d(64, 64, kernel_size=(7,), stride=(1,), padding=(9,), dilation=(3,))
            )
            (2): Sequential(
              (0): LeakyReLU(negative_slope=0.1)
              (1): Conv1d(64, 64, kernel_size=(7,), stride=(1,), padding=(15,), dilation=(5,))
            )
          )
          (convs2): ModuleList(
            (0-2): 3 x Sequential(
              (0): LeakyReLU(negative_slope=0.1)
              (1): Conv1d(64, 64, kernel_size=(7,), stride=(1,), padding=(3,))
            )
          )
        )
        (8): ResidualBlock(
          (convs1): ModuleList(
            (0): Sequential(
              (0): LeakyReLU(negative_slope=0.1)
              (1): Conv1d(64, 64, kernel_size=(11,), stride=(1,), padding=(5,))
            )
            (1): Sequential(
              (0): LeakyReLU(negative_slope=0.1)
              (1): Conv1d(64, 64, kernel_size=(11,), stride=(1,), padding=(15,), dilation=(3,))
            )
            (2): Sequential(
              (0): LeakyReLU(negative_slope=0.1)
              (1): Conv1d(64, 64, kernel_size=(11,), stride=(1,), padding=(25,), dilation=(5,))
            )
          )
          (convs2): ModuleList(
            (0-2): 3 x Sequential(
              (0): LeakyReLU(negative_slope=0.1)
              (1): Conv1d(64, 64, kernel_size=(11,), stride=(1,), padding=(5,))
            )
          )
        )
        (9): ResidualBlock(
          (convs1): ModuleList(
            (0): Sequential(
              (0): LeakyReLU(negative_slope=0.1)
              (1): Conv1d(32, 32, kernel_size=(3,), stride=(1,), padding=(1,))
            )
            (1): Sequential(
              (0): LeakyReLU(negative_slope=0.1)
              (1): Conv1d(32, 32, kernel_size=(3,), stride=(1,), padding=(3,), dilation=(3,))
            )
            (2): Sequential(
              (0): LeakyReLU(negative_slope=0.1)
              (1): Conv1d(32, 32, kernel_size=(3,), stride=(1,), padding=(5,), dilation=(5,))
            )
          )
          (convs2): ModuleList(
            (0-2): 3 x Sequential(
              (0): LeakyReLU(negative_slope=0.1)
              (1): Conv1d(32, 32, kernel_size=(3,), stride=(1,), padding=(1,))
            )
          )
        )
        (10): ResidualBlock(
          (convs1): ModuleList(
            (0): Sequential(
              (0): LeakyReLU(negative_slope=0.1)
              (1): Conv1d(32, 32, kernel_size=(7,), stride=(1,), padding=(3,))
            )
            (1): Sequential(
              (0): LeakyReLU(negative_slope=0.1)
              (1): Conv1d(32, 32, kernel_size=(7,), stride=(1,), padding=(9,), dilation=(3,))
            )
            (2): Sequential(
              (0): LeakyReLU(negative_slope=0.1)
              (1): Conv1d(32, 32, kernel_size=(7,), stride=(1,), padding=(15,), dilation=(5,))
            )
          )
          (convs2): ModuleList(
            (0-2): 3 x Sequential(
              (0): LeakyReLU(negative_slope=0.1)
              (1): Conv1d(32, 32, kernel_size=(7,), stride=(1,), padding=(3,))
            )
          )
        )
        (11): ResidualBlock(
          (convs1): ModuleList(
            (0): Sequential(
              (0): LeakyReLU(negative_slope=0.1)
              (1): Conv1d(32, 32, kernel_size=(11,), stride=(1,), padding=(5,))
            )
            (1): Sequential(
              (0): LeakyReLU(negative_slope=0.1)
              (1): Conv1d(32, 32, kernel_size=(11,), stride=(1,), padding=(15,), dilation=(3,))
            )
            (2): Sequential(
              (0): LeakyReLU(negative_slope=0.1)
              (1): Conv1d(32, 32, kernel_size=(11,), stride=(1,), padding=(25,), dilation=(5,))
            )
          )
          (convs2): ModuleList(
            (0-2): 3 x Sequential(
              (0): LeakyReLU(negative_slope=0.1)
              (1): Conv1d(32, 32, kernel_size=(11,), stride=(1,), padding=(5,))
            )
          )
        )
      )
      (output_conv): Sequential(
        (0): LeakyReLU(negative_slope=0.01)
        (1): Conv1d(32, 1, kernel_size=(7,), stride=(1,), padding=(3,))
        (2): Tanh()
      )
    )
  )
  (discriminator): HiFiGANMultiScaleMultiPeriodDiscriminator(
    (msd): HiFiGANMultiScaleDiscriminator(
      (discriminators): ModuleList(
        (0-2): 3 x HiFiGANScaleDiscriminator(
          (layers): ModuleList(
            (0): Sequential(
              (0): Conv1d(1, 128, kernel_size=(15,), stride=(1,), padding=(7,))
              (1): LeakyReLU(negative_slope=0.1)
            )
            (1): Sequential(
              (0): Conv1d(128, 128, kernel_size=(41,), stride=(4,), padding=(20,), groups=4)
              (1): LeakyReLU(negative_slope=0.1)
            )
            (2): Sequential(
              (0): Conv1d(128, 256, kernel_size=(41,), stride=(4,), padding=(20,), groups=16)
              (1): LeakyReLU(negative_slope=0.1)
            )
            (3): Sequential(
              (0): Conv1d(256, 512, kernel_size=(41,), stride=(4,), padding=(20,), groups=16)
              (1): LeakyReLU(negative_slope=0.1)
            )
            (4): Sequential(
              (0): Conv1d(512, 1024, kernel_size=(41,), stride=(4,), padding=(20,), groups=16)
              (1): LeakyReLU(negative_slope=0.1)
            )
            (5): Sequential(
              (0): Conv1d(1024, 1024, kernel_size=(41,), stride=(1,), padding=(20,), groups=16)
              (1): LeakyReLU(negative_slope=0.1)
            )
            (6): Sequential(
              (0): Conv1d(1024, 1024, kernel_size=(5,), stride=(1,), padding=(2,))
              (1): LeakyReLU(negative_slope=0.1)
            )
            (7): Conv1d(1024, 1, kernel_size=(3,), stride=(1,), padding=(1,))
          )
        )
      )
      (pooling): AvgPool1d(kernel_size=(4,), stride=(2,), padding=(2,))
    )
    (mpd): HiFiGANMultiPeriodDiscriminator(
      (discriminators): ModuleList(
        (0-4): 5 x HiFiGANPeriodDiscriminator(
          (convs): ModuleList(
            (0): Sequential(
              (0): Conv2d(1, 32, kernel_size=(5, 1), stride=(3, 1), padding=(2, 0))
              (1): LeakyReLU(negative_slope=0.1)
            )
            (1): Sequential(
              (0): Conv2d(32, 128, kernel_size=(5, 1), stride=(3, 1), padding=(2, 0))
              (1): LeakyReLU(negative_slope=0.1)
            )
            (2): Sequential(
              (0): Conv2d(128, 512, kernel_size=(5, 1), stride=(3, 1), padding=(2, 0))
              (1): LeakyReLU(negative_slope=0.1)
            )
            (3): Sequential(
              (0): Conv2d(512, 1024, kernel_size=(5, 1), stride=(3, 1), padding=(2, 0))
              (1): LeakyReLU(negative_slope=0.1)
            )
            (4): Sequential(
              (0): Conv2d(1024, 1024, kernel_size=(5, 1), stride=(1, 1), padding=(2, 0))
              (1): LeakyReLU(negative_slope=0.1)
            )
          )
          (output_conv): Conv2d(1024, 1, kernel_size=(2, 1), stride=(1, 1), padding=(1, 0))
        )
      )
    )
  )
  (generator_adv_loss): GeneratorAdversarialLoss()
  (discriminator_adv_loss): DiscriminatorAdversarialLoss()
  (feat_match_loss): FeatureMatchLoss()
  (mel_loss): MelSpectrogramLoss(
    (wav_to_mel): LogMelFbank(
      (stft): Stft(n_fft=1024, win_length=1024, hop_length=256, center=True, normalized=False, onesided=True)
…
